…
2021-09-05 05:04:34.007115: I tensorflow/core/common_runtime/gpu/gpu_device.cc:1261] Device interconnect StreamExecutor with strength 1 edge matrix:
2021-09-05 05:04:34.007275: I tensorflow/core/common_runtime/gpu/gpu_device.cc:1267]
2021-09-05 05:04:34.007927: I tensorflow/compiler/jit/xla_gpu_device.cc:99] Not creating XLA devices, tf_xla_enable_xla_devices not set
Model: "EEGNet-WangXiangEtAl"
_________________________________________________________________
Layer (type)                 Output Shape              Param #
=================================================================
conv2d (Conv2D)              (None, 64, 641, 8)        1024
_________________________________________________________________
bnorm1 (BatchNormalization)  (None, 64, 641, 8)        32
_________________________________________________________________
depthwise_conv2d (DepthwiseC (None, 1, 641, 16)        1024
_________________________________________________________________
batch_normalization (BatchNo (None, 1, 641, 16)        64
_________________________________________________________________
activation (Activation)      (None, 1, 641, 16)        0
_________________________________________________________________
average_pooling2d (AveragePo (None, 1, 80, 16)         0
_________________________________________________________________
dropout (Dropout)            (None, 1, 80, 16)         0
_________________________________________________________________
separable_conv2d (SeparableC (None, 1, 80, 16)         512
_________________________________________________________________
batch_normalization_1 (Batch (None, 1, 80, 16)         64
_________________________________________________________________
activation_1 (Activation)    (None, 1, 80, 16)         0
_________________________________________________________________
average_pooling2d_1 (Average (None, 1, 10, 16)         0
_________________________________________________________________
dropout_1 (Dropout)          (None, 1, 10, 16)         0
_________________________________________________________________
flatten (Flatten)            (None, 160)               0
_________________________________________________________________
dense (Dense)                (None, 2)                 322
_________________________________________________________________
activation_2 (Activation)    (None, 2)                 0
=================================================================
Total params: 3,042
Trainable params: 2,962
Non-trainable params: 80
_________________________________________________________________
--BATCH TEST--

Parameters:

    batch_size = 10

    n_times = 5

    sk_test = True, sk_select = None

    nn_test = False, nn_select = None

    train_test_split = <function train_test_split at 0x0000027B2EC48C80>, split_subjects = False
…
